공모전/신용카드_사기_거래_탐지/model.pth (torch, 95515 bytes, 20 tensors)

weight f4 [64, 30]
0	0xbdf789fd	-0.12086866
1	0xbe3fcce5	-0.18730505
2	0x3eb264e1	0.3484259
3	0xbd8449de	-0.064594015
4	0xbe9f2637	-0.31083843
5	0x3ea3924f	0.31947562
6	0xbe73a40f	-0.23793052
7	0x3d82331d	0.06357405
8	0x3e9711d0	0.29505777
9	0xbd360e53	-0.044447254
10	0x3d85238b	0.0650092
11	0x3e003b6a	0.12522665
12	0x3d81d817	0.06340044
13	0xbec2fd69	-0.38083962
14	0x3dbdb6c3	0.09263375
15	0x3ec67f17	0.38768837
16	0x3c3d12e3	0.0115401475
17	0x3c970c48	0.018438473
18	0xbd86d9b3	-0.065844916
19	0xbdd87de2	-0.10570885
20	0xbe5b6972	-0.21426943
21	0xbeef1a9e	-0.46699995
22	0x3e4328b7	0.190585
23	0x3e0ea148	0.13928711
24	0xbee4818b	-0.44630083
25	0x3e96be86	0.29442233
26	0xbe880d59	-0.26572683
27	0x3c7e4819	0.015520119
28	0xbdbfb3b9	-0.09360451
29	0xbea25107	-0.31702444
30	0xbd7f4af9	-0.06232736
31	0xbd22e29d	-0.039766897
32	0xbcf98126	-0.03045709
33	0xbd667033	-0.056259345
34	0x3dd50513	0.104013585
35	0x3f012e3f	0.5046119
36	0xbdf8d066	-0.12149124
37	0x3e447c21	0.19187976
38	0x3dd06522	0.101755396
39	0xbe374e8e	-0.1790106
40	0x3e861b1e	0.26192564
41	0x3ce94c07	0.028478635
42	0xbdd1f2db	-0.10251399
43	0xbd3dff85	-0.04638626
44	0x3e9e3e69	0.3090699
45	0xbeffffa4	-0.49999726
46	0x3e5343c5	0.20631321
47	0xbf1b04b0	-0.6055403
48	0xbead66b2	-0.33867413
49	0xbd8dd41b	-0.069252215
50	0xbcde72d2	-0.02715436
51	0x3df22543	0.11823513
52	0x3d213ff8	0.039367646
53	0xbf417c9e	-0.75580776
54	0x3aae65c6	0.0013305477
55	0x3dcccaf0	0.09999645
56	0x3d5efc0a	0.054439582
57	0x3cc47b4c	0.023984574
58	0x3cebc17a	0.02877878
59	0x3ce1171a	0.027476836
60	0xbe7e11fd	-0.2481155
61	0xbdeeb250	-0.11655104
62	0xbcd093ea	-0.025461156
63	0x3df8cbf0	0.12148273
64	0xbddd5738	-0.10807651
65	0xbec74750	-0.38921595
66	0xbd981c5c	-0.07427284
67	0xbd375d00	-0.044766426
68	0x3d5ed4a0	0.054401994
69	0xbde65807	-0.11247259
70	0x3f05b3da	0.52227557
71	0xbdbe30bf	-0.09286641
72	0xbee90d31	-0.45517877
73	0x3ca03677	0.01955722
74	0xbd93324b	-0.07187327
75	0xbdd38634	-0.103283316
76	0x3db871a9	0.09006054
77	0x3cefe291	0.02928284
78	0xbddcd04b	-0.10781916
79	0xbeb708e5	-0.35748973
80	0xbe167b7f	-0.14695548
81	0x3ee9f87f	0.456974
82	0x3cc99b3c	0.024610154
83	0x3eb13d91	0.34617284
84	0xbedc2043	-0.42993364
85	0xbe8dd475	-0.27701154
86	0x3f06af19	0.5261093
87	0x3bc9dad6	0.0061601205
88	0x3cb189d7	0.021672172
89	0x3e7128f2	0.23550776
90	0x3c5bcf63	0.013416144
91	0x3dbe5c2c	0.09294924
92	0xbe2bc72d	-0.16775198
93	0xbf0ac71d	-0.5421007
94	0xbd4f214d	-0.050568867
95	0xbe357f5b	-0.17724364
96	0xbde02624	-0.10944775
97	0xbb402c9a	-0.002932346
98	0x3ebde282	0.37086874
99	0xbeb6e410	-0.35720873
100	0x3da4197d	0.08012674
101	0x3e29cd18	0.16582143
102	0xbb4762fa	-0.0030423985
103	0x3ad389d6	0.0016139101
104	0x3e0188e8	0.12649882
105	0xbedae281	-0.42750934
106	0xbdb62bdc	-0.08895084
107	0x3d26b447	0.04069927
108	0x3e91be59	0.28465536
109	0xbe120091	-0.14258029
110	0xbd6881d6	-0.056764446
111	0x3df41650	0.11918318
112	0xbd2fc2d9	-0.04291043
113	0xbd1cf851	-0.03832275
114	0x3e016e16	0.1263965
115	0xbf06a2ca	-0.52592146
116	0x3e3e1664	0.18563229
117	0xbf43593d	-0.7630804
118	0x3d4ac95c	0.049508438
119	0xbd359e15	-0.044340212
120	0x3ed9fb18	0.42574382
121	0xbe8ac2dc	-0.2710179
122	0xbe4e5f37	-0.20153509
123	0x3dd1b7fb	0.102401696
124	0x3cca4363	0.024690336
125	0x3db23690	0.08701813
126	0xbe55762d	-0.20845862
127	0xbb953364	-0.0045532454
128	0x3eb61cb4	0.35568774
129	0x3e3e69b4	0.1859501
130	0x3de3a6c0	0.111157894
131	0x3d3ad19d	0.04561006
132	0xbde0e6f2	-0.10981549
133	0xbd78ee6d	-0.060774256
134	0xbe0f6e8a	-0.14007011
135	0xbde8f5cb	-0.11375006
136	0x3bf9ecc3	0.007627101
137	0xbe15ab02	-0.14616016
138	0xbe50cefd	-0.2039146
139	0xbe0220c6	-0.12707815
140	0x3b34bbb2	0.0027577695
141	0x3da629e0	0.08113456
142	0x3e824ceb	0.2544931
143	0x3ef14891	0.47125676
144	0x3e13c6b1	0.14431264
145	0xbce21088	-0.027595773
146	0xbe844134	-0.25830996
147	0x3e56324f	0.20917629
148	0x3d66adb3	0.056317996
149	0xbd9f86ff	-0.0778942
150	0xbd8d658d	-0.06904135
151	0x3e453944	0.19260126
152	0xbec576b6	-0.38567132
153	0xbd9ce473	-0.07660761
154	0x3e6109da	0.21976414
155	0xbe4e0dcb	-0.20122449
156	0x3e54cfde	0.2078242
157	0xbdd0a1c9	-0.10187108
158	0x3e5439d4	0.20725185
159	0xbe916dfd	-0.28404227
160	0x3e450d35	0.1924332
161	0xbd8be758	-0.06831235
162	0x3cfd8456	0.030946892
163	0xbf07af61	-0.5300198
164	0xbbaa5233	-0.005197787
165	0xbc8e8b2c	-0.017400347
166	0x3eabcfa6	0.3355686
167	0x3e0a90b9	0.1353177
168	0x3d870cf1	0.06594265
169	0xbdcab659	-0.09898061
170	0xbd9d0b01	-0.076681145
171	0xbdbee859	-0.093216605
172	0x3dfc6aa0	0.123250246
173	0xbd1c33bb	-0.03813527
174	0xbe7662be	-0.24061105
175	0xbedef940	-0.43549538
176	0x3de33f4a	0.11096056
177	0xbd50fa70	-0.051020086
178	0x3e4eef4b	0.2020847
179	0x3c1bec7c	0.0095168315
180	0xbd8f1ecb	-0.06988295
181	0xbd7dc65a	-0.06195674
182	0xbdb08d1b	-0.08620664
183	0xbd3c5ba9	-0.04598585
184	0x3dec0f01	0.11526299
185	0x3ec5b588	0.3861506
186	0x3e26ac63	0.16276698
187	0x3dd6d8ba	0.10490556
188	0xbef1fc5b	-0.47262844
189	0x3dc6e250	0.097111344
190	0x3eb6e71d	0.357232
191	0xbd9175f2	-0.071025744
192	0xbd37aefd	-0.044844616
193	0x3eb0f9ba	0.34565526
194	0x3e9572f8	0.29189277
195	0xbd1ee4f2	-0.038792558
196	0x3c8d670e	0.017261054
197	0xbd973861	-0.073838
198	0x3f0f9c4e	0.5609788
199	0xbdd1c5f0	-0.10242832
200	0xbd851e31	-0.06499899
201	0xbebb70ac	-0.366094
202	0xbd08901e	-0.033340566
203	0x3f4102d8	0.75394964
204	0xbe68989d	-0.22714467
205	0x3eb8db0b	0.36104617
206	0x3ebb37d6	0.36566037
207	0xbe80f1d8	-0.25184512
208	0x3d5c455e	0.05377709
209	0x3d5d021d	0.053957094
210	0x3ef85c35	0.48507848
211	0xbe94ed27	-0.29087183
212	0xbec741f8	-0.38917518
213	0x3e22ddd1	0.15904929
214	0xbe43717e	-0.19086263
215	0xbd2da873	-0.042396974
216	0xbe84b9dd	-0.25923052
217	0x3de17577	0.11008733
218	0x3e9cf6ff	0.30657193
219	0x3e482d8a	0.19548622
220	0xbd80a511	-0.06281484
221	0x3db376fc	0.08762929
222	0x3c09b637	0.00840526
223	0x3d63634c	0.05551462
224	0x3e6e9494	0.23298866
225	0x3e2c3cf0	0.16820121
226	0xbdcc4ef1	-0.099759944
227	0x3b328281	0.002723843
228	0xbc12aa28	-0.008951701
229	0xbdbc0b50	-0.09181845
230	0xbe11f1bc	-0.1425237
231	0xbe360aef	-0.17777608
232	0xbd6c607d	-0.057709206
233	0xbe1787ba	-0.1479787
234	0xbe1c8eeb	-0.15288894
235	0x3e069b47	0.13145171
236	0x3d85aeae	0.06527458
237	0x3ec35895	0.3815352
238	0x3d612985	0.054971237
239	0xbdec4174	-0.11535922
240	0xbd80610a	-0.06268509
241	0xbd80f30f	-0.0629636
242	0xbdf56668	-0.11982423
243	0xbe04c515	-0.12965806
244	0x3db299dc	0.087207526
245	0xbe03b976	-0.12863716
246	0xbee35e21	-0.44407752
247	0xba8f4a2b	-0.0010932138
248	0xbebca248	-0.3684256
249	0x3e89fba0	0.26949787
250	0x3e2366a2	0.1595712
251	0xbec0f558	-0.37687182
252	0xbe9f0ac2	-0.31062895
253	0xbe5606ec	-0.20901078
254	0xbe47be21	-0.19506122
255	0x3d8a4fa5	0.06753472

bias f4 [64]
0	0xbda7cc0e	-0.08193217
1	0x3e46fa4f	0.19431423
2	0x3e33edcb	0.1757118
3	0xbd70e672	-0.05881352
4	0x3c094846	0.008379048
5	0x3e20f058	0.15716684
6	0xbd0b939b	-0.034076314
7	0xbd49b307	-0.049243
8	0x3d88d990	0.06682122
9	0x3dd203f7	0.102546625
10	0x3d1a9911	0.03774363
11	0x3ddb02bc	0.10693881
12	0xbd257682	-0.04039622
13	0x3db27bbe	0.08715008
14	0x3e1a5028	0.1506964
15	0x3d8be7e1	0.06831337
16	0xbdc9563e	-0.098309025
17	0x3d88be40	0.06676912
18	0x3df5ebea	0.12007888
19	0xbdc56423	-0.0963824
20	0x3d95ec56	0.07320468
21	0xbdd4b0ad	-0.10385261
22	0xbd5c0dac	-0.053723976
23	0x3ca96f5e	0.020682987
24	0x3d4068cd	0.046974946
25	0xbe0de6e6	-0.13857612
26	0x3dec2673	0.11530771
27	0xbdcc4637	-0.0997433
28	0xbd1078f5	-0.035271604
29	0xbe487079	-0.19574155
30	0x3d9f36dd	0.07774136
31	0xbd393e7d	-0.04522561
32	0xbdc6337f	-0.09677791
33	0xbd68b6cc	-0.056814954
34	0xbe2ed1e9	-0.17072262
35	0x3e4b419f	0.19849251
36	0xbd866dc5	-0.065639056
37	0xbcc3abaf	-0.023885576
38	0xbe071034	-0.13189775
39	0x3d70fa20	0.058832288
40	0x3d6cbbaf	0.057796177
41	0x3e1457aa	0.14486566
42	0xbd29411e	-0.041321866
43	0x3c64612c	0.013939183
44	0x3dd571ce	0.10422097
45	0x3e000fca	0.12506023
46	0x3e8389c5	0.25691047
47	0xbe2b6674	-0.16738302
48	0xbe104d02	-0.14091876
49	0xbe174bc3	-0.14774995
50	0xbddb785c	-0.10716316
51	0xbdb9a4e2	-0.09064652
52	0xbdf7b651	-0.12095321
53	0xbd8beac0	-0.068318844
54	0x3d633499	0.055470083
55	0xbd158dfe	-0.036512367
56	0xbe082643	-0.13295846
57	0x3e0b11b5	0.13580973
58	0x3dcc1dee	0.09966646
59	0xbe1dbe6e	-0.15404674
60	0x3e3e5744	0.18587977
61	0xbdff8e16	-0.124782726
62	0x3ccd0ecc	0.02503147
63	0x3dc2772c	0.094953865

weight f4 [64]
0	0x3f6ef794	0.93346524
1	0x3f576c5f	0.84149736
2	0x3f2a0c55	0.6642507
3	0x3f0e3260	0.55545616
4	0x3f5685e8	0.83798075
5	0x3f1547e3	0.58312815
6	0x3f2befdc	0.6716287
7	0x3f903d67	1.1268739
8	0x3f3243b0	0.6963453
9	0x3ed5f890	0.417912
10	0x3ebfde93	0.37474498
11	0x3f6bd638	0.92123747
12	0x3ee7d422	0.45279032
13	0x3f3288b0	0.6973982
14	0x3f068c10	0.5255747
15	0x3f80fac8	1.0076532
16	0x3f28d3d6	0.65948236
17	0x3f8160dc	1.0107684
18	0x3f3322d9	0.6997505
19	0x3f33b4f0	0.70197964
20	0x3f276de4	0.65402055
21	0x3f2d5c71	0.6771918
22	0x3f179fd1	0.59228235
23	0x3f00c8f7	0.5030665
24	0x3ee457e9	0.4459832
25	0x3f1bbd71	0.6083594
26	0x3f9b2ab1	1.2122403
27	0x3f570575	0.839927
28	0x3f13b77f	0.5770187
29	0x3f8199cd	1.0125061
30	0x3f348b91	0.7052546
31	0x3f0b9e07	0.54538006
32	0x3f2a2255	0.66458637
33	0x3f095d5e	0.5365809
34	0x3f49be1e	0.7880572
35	0x3f033ff3	0.51269454
36	0x3f392acd	0.72330934
37	0x3f188787	0.595818
38	0x3f48c4be	0.78425205
39	0x3f4d70f2	0.80250466
40	0x3f80c958	1.0061445
41	0x3f551f1f	0.8325061
42	0x3f251e39	0.6449924
43	0x3f599f0e	0.85008323
44	0x3f5dc774	0.86632466
45	0x3f33e9e1	0.70278746
46	0x3f846aaa	1.0345051
47	0x3f932d5b	1.1498216
48	0x3eced729	0.4039853
49	0x3f4e8dcd	0.8068512
50	0x3f4dffe9	0.8046861
51	0x3f263821	0.64929396
52	0x3f5d87c4	0.86535287
53	0x3f2d749c	0.67756057
54	0x3f60aca5	0.87763435
55	0x3f6d1134	0.92604375
56	0x3f05af80	0.52220917
57	0x3f015f4f	0.50536054
58	0x3f0e4a07	0.55581707
59	0x3ed733bb	0.42031655
60	0x3f011265	0.5041869
61	0x3f237a97	0.6385893
62	0x3f118860	0.56848717
63	0x3f2569a5	0.64614326

bias f4 [64]
0	0xbcb4f4de	-0.022089418
1	0x3fb8ea17	1.4446439
2	0x3fe1f739	1.7653571
3	0x3eef6858	0.46759295
4	0x3dce92d5	0.100866
5	0x3ec19662	0.37810045
6	0x400b46a2	2.176186
7	0xbd1fcd18	-0.039013952
8	0x3fcfecbc	1.6244121
9	0x3f23528a	0.6379782
10	0x3ef217f1	0.4728389
11	0x3f8a785e	1.0817983
12	0x3f7e5aa0	0.9935703
13	0x3feb17b5	1.836661
14	0x3d1fdb54	0.039027527
15	0x3e86cfd9	0.2633045
16	0x3f9b4941	1.213173
17	0xbe87fe85	-0.2656137
18	0x3f9d856a	1.230634
19	0x3f0d958c	0.55306315
20	0x3ffb10c1	1.9614488
21	0x3fdaba57	1.7088116
22	0x3fe6d486	1.8033607
23	0x3f511cfa	0.8168484
24	0x3f0931db	0.535917
25	0x3f95098f	1.1643542
26	0x3eeba10d	0.4602131
27	0x3eff3db0	0.4985175
28	0x3fcfd8da	1.6238053
29	0x3ed109e9	0.40827873
30	0xbec55d2c	-0.38547647
31	0x3fb5bae5	1.4197661
32	0x3e18feb9	0.14940919
33	0x3f993b1b	1.1971163
34	0x3fb9b59e	1.450855
35	0x3f0a8d90	0.5412226
36	0x3f43d0be	0.7649039
37	0x3dc91ffa	0.09820552
38	0x3fac5b03	1.3465275
39	0x3e3f15bb	0.18660633
40	0xbb109a05	-0.002206446
41	0x3fa1f4c6	1.2652824
42	0x3fbf8fcb	1.4965757
43	0x3f54845c	0.83014464
44	0x3fa99d7e	1.3251188
45	0x3e90c485	0.28274933
46	0x3db9efce	0.09078942
47	0x3f9c52d3	1.2212776
48	0x3f684eca	0.9074522
49	0x3ff0489f	1.8772162
50	0x3f97ed98	1.1869383
51	0x3fd482bc	1.6602397
52	0x3e89ce86	0.26915377
53	0x3fbc3603	1.4703983
54	0xbbae11ef	-0.0053121964
55	0x3fa672db	1.3003801
56	0x3e80f8a5	0.251897
57	0x3f8daf87	1.1069192
58	0x3fb284d7	1.394679
59	0x3f889da2	1.0673106
60	0x3dc16fe7	0.09445172
61	0x3fe2989d	1.7702824
62	0x3ea52b08	0.32259393
63	0x3e898ae8	0.2686379

running_mean f4 [64]
0	0xbe504867	-0.2034012
1	0x3e63ae11	0.2223437
2	0x3e5d3270	0.21601272
3	0xbcaaa817	-0.020832105
4	0x3d41ef98	0.047347635
5	0x3ead5cdc	0.3385991
6	0x3ccb1421	0.024789872
7	0xbc8a5031	-0.016883941
8	0x3e6060c2	0.2191191
9	0xbd6b9ec4	-0.057524458
10	0x3e5f865c	0.21828598
11	0x3e8d3851	0.27582029
12	0x3d53cf25	0.05171122
13	0xbd981732	-0.07426299
14	0x3cb06eaa	0.021537144
15	0x3e46b53e	0.19405076
16	0x3df7bb79	0.120963044
17	0xbd84e113	-0.06488242
18	0x3e12dd65	0.14342268
19	0xbdc5e8cc	-0.09663543
20	0xbd8c505e	-0.06851266
21	0xbe0e63e6	-0.13905296
22	0xbd9d22e9	-0.07672674
23	0x3e9db422	0.30801493
24	0x3c8ca04a	0.017166276
25	0xbc438de6	-0.011935687
26	0x3dd7c1c6	0.10535006
27	0xbd6de551	-0.05808002
28	0xbe084f5c	-0.13311523
29	0xbd7270e4	-0.059189692
30	0xbe1dc3ff	-0.15406798
31	0xbbf55a9d	-0.0074876086
32	0xbc997033	-0.018730259
33	0x3dd990c6	0.106233165
34	0xbdf4dcc2	-0.11956169
35	0x3ea5b218	0.32362437
36	0xbe326da8	-0.17424643
37	0x3cde86c5	0.027163872
38	0xbdb3878d	-0.08766089
39	0x3e300c0c	0.17192096
40	0x3da9f0b2	0.08297862
41	0x3e0e96c8	0.13924706
42	0xba85fa28	-0.0010221647
43	0x3c772c23	0.015086207
44	0x3e7ddb4e	0.2479069
45	0xbe118417	-0.14210545
46	0x3e7ce25d	0.24695726
47	0x3f4745f7	0.7784113
48	0xbe102f96	-0.14080653
49	0xbe0f90d1	-0.14020087
50	0xbe7d36fe	-0.24728009
51	0xbca067cf	-0.01958075
52	0x3c010b7f	0.007876276
53	0xbe21933c	-0.15778822
54	0xbeeda7ac	-0.46416986
55	0x3b0f73b4	0.0021889033
56	0xbee31f95	-0.44360033
57	0x3e27fb51	0.16404463
58	0x3e5dfe05	0.21678932
59	0xbe1c4478	-0.15260494
60	0x3e89e8cc	0.26935422
61	0xbe1371ff	-0.14398955
62	0x3ddce840	0.10786486
63	0xbeb11844	-0.34588826

running_var f4 [64]
0	0x3fd69560	1.6764336
1	0x3fc8c841	1.5686113
2	0x3fc028c7	1.5012444
3	0x3fb745a5	1.4318129
4	0x3fc31ae2	1.5242579
5	0x3fd2acef	1.6459025
6	0x3fd5813e	1.6680067
7	0x40058843	2.0864418
8	0x3fba4da6	1.4554946
9	0x3fd8bb22	1.6932108
10	0x4010a1b1	2.2598689
11	0x4041e20d	3.029422
12	0x3fc7bafa	1.5603936
13	0x3fca3976	1.5798786
14	0x3f77d0cc	0.96802974
15	0x3fb577d5	1.4177195
16	0x3fd25708	1.643281
17	0x3fbe6207	1.4873666
18	0x3fc7fb00	1.5623474
19	0x3fe2ef31	1.7729245
20	0x3f82dce8	1.0223665
21	0x3fc55f30	1.5419674
22	0x3f8ce633	1.1007751
23	0x3fa6f5b4	1.3043733
24	0x3fbbce4e	1.4672334
25	0x3fc2ae32	1.520941
26	0x403856ea	2.8803048
27	0x3fdb18c8	1.7116938
28	0x3f931e7b	1.1493677
29	0x401341c0	2.300888
30	0x3fd3cf11	1.6547567
31	0x3fdbe00b	1.7177747
32	0x3fe6ff93	1.8046745
33	0x3fd0f448	1.6324549
34	0x4000c0ba	2.011763
35	0x3fda8492	1.7071707
36	0x400a4561	2.1604846
37	0x3fb101f6	1.3828723
38	0x3fe3262c	1.7746024
39	0x3fcf9c0a	1.6219494
40	0x3fed8ef1	1.8559247
41	0x40255e7d	2.583892
42	0x3fe4d9be	1.787895
43	0x40277d17	2.6170099
44	0x3fd06646	1.6281211
45	0x403e38bc	2.9722128
46	0x3fe05e4b	1.7528776
47	0x415a7e33	13.65581
48	0x3f6f5846	0.9349407
49	0x3fe96cd1	1.8236333
50	0x3f9c712e	1.222204
51	0x3fdaa564	1.7081723
52	0x3ffe187b	1.9851221
53	0x3faaa0f6	1.3330371
54	0x40d684de	6.703719
55	0x4008db4a	2.1383843
56	0x408bb35b	4.365644
57	0x3fad4826	1.3537643
58	0x3fa5bce0	1.2948265
59	0x3fb1bb1c	1.3885226
60	0x3f725c49	0.94672066
61	0x3fb58340	1.4180679
62	0x3fac6bc0	1.3470383
63	0x403626fc	2.8461294

weight f4 [128, 64]
0	0x3bd0aa66	0.0063679693
1	0xbd6ac2d0	-0.057314694
2	0xbe03fb4c	-0.12888831
3	0x3eabb3b9	0.33535555
4	0xbde4fbfa	-0.11180873
5	0xbe487536	-0.19575962
6	0x3ea9e385	0.33181396
7	0xbde1f44b	-0.11032923
8	0x3f4bdbc5	0.79632217
9	0x3ccbdc81	0.024885418
10	0x3d84b2b8	0.064794004
11	0x3e03f37b	0.12885849
12	0x3d8e6e74	0.06954661
13	0xbdcd72a1	-0.10031629
14	0x3dcb580a	0.099289015
15	0x3e6e0c9b	0.23246996
16	0x3da045d2	0.07825817
17	0xbe801138	-0.25013137
18	0xbc829bb3	-0.015943384
19	0xbe1d754f	-0.15376781
20	0x3e8de7f7	0.27716038
21	0xbdcaac68	-0.09896165
22	0x3cf9977d	0.030467743
23	0x3e4e1882	0.20126536
24	0xbd46fe01	-0.04858208
25	0xbdaa0d63	-0.083033346
26	0x3e65c5d6	0.2243875
27	0x3dfe3069	0.12411577
28	0xbea70892	-0.32623726
29	0x3df8a179	0.121401735
30	0xbcacd65f	-0.021098314
31	0x3e460cea	0.19340864
32	0x3c8b5c05	0.017011652
33	0x3c4d0577	0.01251351
34	0xbc666f7b	-0.014064665
35	0x3c3b383b	0.011426981
36	0xbec622b8	-0.38698363
37	0x3d88b26b	0.066746555
38	0x3d920ab7	0.0713095
39	0x3dd197e0	0.10234046
40	0x3dd16898	0.10225028
41	0xbdd56914	-0.10420433
42	0xbd1156d6	-0.035483204
43	0xbcbeec41	-0.023306014
44	0x3d378ce0	0.044812083
45	0x3e9db94b	0.3080543
46	0x3dfa1fd2	0.122131005
47	0x3ef479c7	0.4774916
48	0x3dc7bece	0.0975319
49	0x3d9da795	0.07697979
50	0x3db72636	0.08942835
51	0x3dc3e072	0.09564294
52	0x3e168756	0.14700064
53	0x3e3e6792	0.18594196
54	0x3e50958b	0.20369546
55	0xbd86ea77	-0.06587689
56	0x3e82ddd0	0.25559855
57	0xbe2080a2	-0.1567407
58	0xbdb906e8	-0.090345204
59	0x3de7a35c	0.11310455
60	0x3d296180	0.04135275
61	0xbd1a96ed	-0.03774159
62	0x3db2e6bd	0.08735416
63	0x3e017bd5	0.12644894
64	0x3e763fd5	0.24047787
65	0x3c8e02c7	0.017335309
66	0xbdaf5e99	-0.08562965
67	0xbb4beadf	-0.0031115336
68	0x3d23578e	0.03987842
69	0xbd9df27f	-0.07712268
70	0xbe29f3a0	-0.16596842
71	0x3edb81f6	0.4287259
72	0xbdb3b9e4	-0.0877569
73	0xbe9c43ac	-0.3052038
74	0x3e7ad16e	0.24493954
75	0x3e15a67a	0.14614287
76	0x3e3e615c	0.18591827
77	0xbd5af718	-0.053458303
78	0xbd4e821e	-0.05041706
79	0xbe4f783f	-0.20260714
80	0xbd5a1510	-0.053242743
81	0x3e2555e1	0.16146041
82	0xbb17e8a0	-0.0023179427
83	0xbd9b6a1f	-0.075886
84	0x3d966115	0.07342736
85	0xbc6e75f6	-0.014554491
86	0x3e6051b0	0.21906161
87	0x3cc9bd86	0.024626505
88	0x3cc63860	0.024196804
89	0xbe6e7b9c	-0.2328934
90	0xbd51a7b7	-0.051185336
91	0xbdfbd91b	-0.12297269
92	0xbd41b225	-0.047289032
93	0xbe1d22c7	-0.15345298
94	0xbd86a65a	-0.06574698
95	0x3e217978	0.15768993
96	0x3e281cec	0.16417283
97	0x3efc5d38	0.4928987
98	0x3d161642	0.03664232
99	0x3e5e6c9c	0.21721119
100	0x3c3b1c38	0.011420302
101	0x3e08602b	0.13317935
102	0x3e14aa37	0.14518057
103	0xbe4160ec	-0.18884629
104	0xbe1b8a3e	-0.15189454
105	0x3e3ae8ad	0.18252821
106	0x3d387aea	0.045039095
107	0xbd452ff2	-0.048141427
108	0x3e229bf9	0.15879811
109	0x3e799a69	0.24375309
110	0xbd3d30b0	-0.04618901
111	0x3edd13e3	0.43179235
112	0x3da8ad15	0.08236138
113	0xbd29ec9c	-0.041485414
114	0xbe83e1c7	-0.25758192
115	0x3cfd0b77	0.030889256
116	0xbdb21cd7	-0.08696907
117	0x3d926013	0.07147231
118	0x3df9ddcb	0.12200507
119	0xbdcab24f	-0.09897291
120	0xbcadca86	-0.021214735
121	0xbd3221f3	-0.043489408
122	0xbdb6dad5	-0.08928458
123	0x3df44787	0.11927705
124	0xbd8763d3	-0.06610837
125	0xbd78a1d4	-0.060701206
126	0x3ed1be92	0.40965706
127	0xbb2d68ef	-0.002646025
128	0xbd8cbe3b	-0.06872221
129	0xbdbe4374	-0.092902094
130	0x3e1c29e1	0.1525035
131	0x3db9da2f	0.09074818
132	0x3f053609	0.52035576
133	0xbdeee16b	-0.11664089
134	0xbe020c44	-0.12699991
135	0x3e52223c	0.20520872
136	0x3e23a7b5	0.15981944
137	0xbce01321	-0.027352871
138	0x3e6af983	0.22946744
139	0xbe2f703a	-0.17132655
140	0x3de78dfb	0.113063775
141	0x3d707847	0.058708455
142	0x3e7fd34e	0.2498295
143	0x3d28f223	0.041246545
144	0xbdfe7645	-0.12424902
145	0xbd858670	-0.065197825
146	0xbb8f4aa0	-0.0043729097
147	0x3d90b915	0.070665516
148	0xbd9c0d29	-0.076196976
149	0x3cd5e808	0.026111618
150	0x3ca80947	0.020512236
151	0xbcf0da8c	-0.029401086
152	0x3d074863	0.033028018
153	0x3c114ba1	0.008868129
154	0xbe8f8a6b	-0.28035292
155	0xbd64face	-0.05590325
156	0x3c0a0103	0.008423093
157	0xbd584cce	-0.05280762
158	0x3cd4a9e0	0.025959909
159	0x3c846755	0.016162554
160	0xbd99c4f4	-0.07508269
161	0xbcc63fdc	-0.024200372
162	0xbc7a7d85	-0.015288715
163	0x3e24a544	0.16078669
164	0xbd2c60d5	-0.042084534
165	0x3f1c8ec5	0.6115535
166	0x3ddb4589	0.10706622
167	0xbdc47de9	-0.09594328
168	0x3e4d4f3c	0.20049757
169	0xbe484d3b	-0.19560711
170	0xbd8c8f11	-0.06863225
171	0xbe42f8ff	-0.19040297
172	0xbdbcab34	-0.09212342
173	0x3eba12db	0.3634251
174	0xbe10f6ab	-0.14156596
175	0xbde309dd	-0.11085866
176	0x3ecd244e	0.4006676
177	0x3e165ab3	0.14683037
178	0x3e07785b	0.13229506
179	0xbe1ba4c1	-0.15199567
180	0x3d3d9926	0.04628863
181	0xbae7564d	-0.0017649621
182	0x3e9096b1	0.28239968
183	0xbdc7179f	-0.09721302
184	0xba4aeb78	-0.0007740776
185	0xbcf32e7f	-0.029685257
186	0xbdd9227b	-0.1060228
187	0xbded3d3d	-0.11583946
188	0x3dc811e2	0.09769036
189	0xbe07b593	-0.13252859
190	0xbd7ade02	-0.06124688
191	0x3e0ea45d	0.13929887
192	0x3e11f79f	0.14254616
193	0xbcb0b247	-0.021569384
194	0xbc99a732	-0.018756483
195	0x3e80d61c	0.25163352
196	0xbc999288	-0.01874663
197	0x3e20c67d	0.15700717
198	0x3e82d9ad	0.25556698
199	0x3e110c35	0.14164813
200	0xbe0f2fac	-0.13983029
201	0x3e40e46d	0.18837138
202	0xbd880650	-0.06641829
203	0x3e23b904	0.15988547
204	0x3e20ead0	0.15714574
205	0x3e8cf11c	0.27527702
206	0x3e047a5d	0.12937303
207	0xbe086c2a	-0.13322511
208	0xbe0e59f2	-0.13901499
209	0x3e07790f	0.13229774
210	0xbd3b4582	-0.045720585
211	0x3e3400e5	0.17578466
212	0x3ecb9a5b	0.397662
213	0x3e450beb	0.19242828
214	0x3ba1f1f6	0.004942174
215	0xbc985557	-0.01859538
216	0x3e61bfe1	0.22045852
217	0xbedbf00f	-0.42956588
218	0xbdf6fc85	-0.12059883
219	0xbda4e710	-0.08051884
220	0x3f10ed62	0.5661222
221	0xbe6b6754	-0.22988635
222	0xbdccba11	-0.09996427
223	0xbddb5205	-0.10709003
224	0xbdc9d55a	-0.09855147
225	0xbeab8e58	-0.33507037
226	0xbd6a69e1	-0.05722988
227	0x3e08081d	0.13284345
228	0x3e749ab2	0.23887137
229	0x3e779cef	0.24180959
230	0xbe202198	-0.15637815
231	0xbd46cfcf	-0.048538025
232	0x3e63182c	0.2217719
233	0x3eaf398f	0.342236
234	0x3cb052b2	0.021523807
235	0xbda4b4fa	-0.08042331
236	0xbda144f4	-0.0787448
237	0xbe973058	-0.2952907
238	0x3dca604a	0.09881647
239	0xbe3830cb	-0.17987363
240	0x3e1640e0	0.14673185
241	0xbe1ad17e	-0.15118977
242	0x3eadd819	0.33953932
243	0x3e9ae695	0.30254045
244	0x3d6fb317	0.058520403
245	0x3d4e7663	0.05040587
246	0x3df79325	0.120886125
247	0x3ddebfa6	0.10876398
248	0xbd4e5aab	-0.050379436
249	0x3da83bcf	0.082145326
250	0x3dfb229a	0.12262459
251	0x3ed8a010	0.42309618
252	0xbe2601a7	-0.16211568
253	0xbdd3401d	-0.10314963
254	0x3dec7126	0.11545019
255	0x3db3391d	0.08751128

bias f4 [128]
0	0xbe09e9ef	-0.13468145
1	0xbe05fbca	-0.13084331
2	0x3b8aff7d	0.0042418824
3	0x3dba37ba	0.0909266
4	0x3e13d4e0	0.14436674
5	0xbc84d6f8	-0.016215786
6	0xbc799b90	-0.015234843
7	0x3bb999c2	0.0056640813
8	0x3dadb1d5	0.084811844
9	0x3db29e5e	0.087216124
10	0xbe2688ee	-0.16263172
11	0xbd9ba76e	-0.07600294
12	0xbd833587	-0.06406694
13	0xbcc768db	-0.024341991
14	0xbe0026df	-0.12514828
15	0xbc7ce511	-0.015435473
16	0xbade393a	-0.0016954311
17	0x3e0a9b77	0.13535868
18	0xbe01d771	-0.1267984
19	0x3d8bbe11	0.06823362
20	0xbe07f2e0	-0.13276243
21	0xbabdffd7	-0.0014495802
22	0xbdb0ec3c	-0.08638808
23	0x3e1018f7	0.14072023
24	0x3d3e9c51	0.046535794
25	0xbdd2c1f0	-0.10290897
26	0x3c41edb3	0.011836457
27	0xbc04ea8d	-0.008112562
28	0xbd7e1ab7	-0.062037196
29	0xbda2884f	-0.07936155
30	0xbcbc6e19	-0.023001717
31	0x3d986932	0.074419394
32	0x3dff044f	0.12451994
33	0x3d102d7c	0.035199627
34	0x3d884d54	0.06655374
35	0x3d121523	0.03566469
36	0xbcd7fb5f	-0.02636498
37	0xbd2484ef	-0.040165838
38	0xbdd7013a	-0.10498281
39	0x3d461df1	0.048368398
40	0xbe1cd39a	-0.15315095
41	0x3b8f6eaa	0.004377206
42	0xbdab2e0e	-0.083583936
43	0xbd09512d	-0.03352468
44	0x3e05d18c	0.13068217
45	0x3e7562d0	0.23963475
46	0x3ddc08c1	0.10743857
47	0xbdba2183	-0.09088423
48	0xbd72d699	-0.059286688
49	0xbd44cf13	-0.048049044
50	0xbd8f3987	-0.06993394
51	0x3e174a4b	0.14774434
52	0x3ccc2699	0.024920749
53	0x3da17889	0.078843184
54	0xbde30500	-0.11084938
55	0xbdacbbdf	-0.08434271
56	0x3e05c898	0.13064802
57	0xbd536cf0	-0.051617563
58	0x3d97b602	0.07407762
59	0x3de45c4c	0.11150417
60	0x3d0135ad	0.03154533
61	0xbda69c6b	-0.08135303
62	0x3da49173	0.08035555
63	0x3bff9416	0.0077996356
64	0xbd9c8c38	-0.07643932
65	0xbb894720	-0.004189387
66	0x3dbc00b8	0.091798246
67	0x3def3d3a	0.116816
68	0xbd9bee61	-0.076138265
69	0xbdd13cd3	-0.102166794
70	0xbc4b448e	-0.012406481
71	0x3dfbeedb	0.123014174
72	0x3dae6e37	0.085171156
73	0xbda50415	-0.08057419
74	0xbd0c365d	-0.034231532
75	0xbd09d825	-0.033653397
76	0xbda7cccd	-0.081933595
77	0xbcee84ee	-0.02911612
78	0xbc4016a9	-0.011724153
79	0xbd16c5ae	-0.036809616
80	0xbdb74682	-0.08948995
81	0xbcffb41b	-0.03121381
82	0x3e35807f	0.17724799
83	0x3dcd01c7	0.100101046
84	0x3c84dda9	0.016218977
85	0x3c0b1a15	0.008490105
86	0xbd732fc5	-0.05937173
87	0xbddc515e	-0.10757707
88	0xbc22a7ed	-0.009927732
89	0x3d934435	0.07190744
90	0x3d38707a	0.04502914
91	0x3e009202	0.12555698
92	0x3d86c9ee	0.06581484
93	0x3bc3d9c8	0.0059768893
94	0xbbf1560e	-0.007364995
95	0xbdd81128	-0.10550147
96	0x3e14ee6b	0.14544074
97	0xbddb5f18	-0.10711497
98	0x3d57f428	0.05272308
99	0xbc052806	-0.008127218
100	0xbd82ab69	-0.0638035
101	0xbe076260	-0.13221121
102	0xbda0d4df	-0.07853102
103	0x3d5e9c70	0.05434841
104	0x3dd3a3a2	0.10333945
105	0x3de565f0	0.11201084
106	0xbdbd2918	-0.09236354
107	0x3c9f8269	0.019471364
108	0x3d16e364	0.03683795
109	0x3ddd9869	0.108200856
110	0x3dff2ea5	0.124600686
111	0x3cd17024	0.025566168
112	0x3c02dde6	0.007987475
113	0x3dbc56b7	0.09196227
114	0xbe052c46	-0.1300517
115	0xbdc7d65b	-0.09757682
116	0xbca806cb	-0.020511052
117	0x3db4ff69	0.08837778
118	0x3c59e93f	0.013300239
119	0x3ba4c286	0.005028072
120	0xbbc16bc4	-0.0059027392
121	0xbdebdc06	-0.115165755
122	0xbc006360	-0.007836193
123	0x3dfae11b	0.12249967
124	0x3d3d13b3	0.046161365
125	0x3d6029a1	0.0547272
126	0xbdc20cdf	-0.09475111
127	0x3c8f5a59	0.017499136

weight f4 [128]
0	0x3f509c98	0.81488943
1	0x3f2259b3	0.6341812
2	0x3f69a8c3	0.91273135
3	0x3f05825a	0.52152026
4	0x3f93b3c9	1.1539241
5	0x3f09362a	0.5359827
6	0x3f8ff397	1.1246213
7	0x3fa797af	1.3093165
8	0x3f0f6d2e	0.5602597
9	0x3f651bcb	0.89495534
10	0x3f8c4be1	1.0960656
11	0x3f821230	1.01618
12	0x3f149e33	0.5805389
13	0x3fafc199	1.3730956
14	0x3f1ccae7	0.61247104
15	0x3f439863	0.764044
16	0x3f0ad6ae	0.54233825
17	0x3f212919	0.62953335
18	0x3f27e637	0.65585655
19	0x3f40ab7d	0.7526167
20	0x3f807932	1.0036986
21	0x3f4f73dc	0.8103616
22	0x3f9fd065	1.2485472
23	0x3fa50b6f	1.2894114
24	0x3f35afe2	0.709715
25	0x3f0b3612	0.5437938
26	0x3f8f7820	1.1208534
27	0x3f972980	1.180954
28	0x3f396f8f	0.7243585
29	0x3f90e84a	1.1320889
30	0x3f1b29ae	0.60610473
31	0x3f908d82	1.1293185
32	0x3f59b235	0.8503755
33	0x3f9bee9b	1.2182192
34	0x3f73b2bc	0.951946
35	0x3f6cce00	0.9250183
36	0x3f19a58e	0.6001824
37	0x3f0b811c	0.5449388
38	0x3f0f81ca	0.5605742
39	0x3f979dc7	1.1845025
40	0x3f0251fe	0.5090636
41	0x3f8da934	1.1067262
42	0x3f8d188d	1.1023117
43	0x3f3a7c11	0.7284556
44	0x3f9c9964	1.2234311
45	0x3f53c808	0.827271
46	0x3f5d0ecd	0.8635071
47	0x3f5c805b	0.86133355
48	0x3ef667e7	0.48126146
49	0x3f9a114d	1.203653
50	0x3f01dbcd	0.50726014
51	0x3fbbb038	1.4663153
52	0x3f7b30ef	0.9812154
53	0x3f57f151	0.84352595
54	0x3fa4596a	1.2839787
55	0x3fbfde7e	1.4989774
56	0x3f494c82	0.78632367
57	0x3f35110b	0.7072913
58	0x3f97dfaf	1.1865138
59	0x3f446a21	0.7672444
60	0x3f8509a8	1.0393572
61	0x3f3b306d	0.73120767
62	0x3f1e72c1	0.6189385
63	0x3f62ed12	0.8864299
64	0x3ebc419f	0.36768815
65	0x3f06aadf	0.5260448
66	0x3f437f4c	0.76366115
67	0x3f2c3dcb	0.6728179
68	0x3ef18969	0.47175148
69	0x3f5190df	0.8186168
70	0x3f202562	0.6255704
71	0x3ef1bacd	0.4721283
72	0x3f797b55	0.97453815
73	0x3f0c06ba	0.54697764
74	0x3f3e05f5	0.7422784
75	0x3f5879f4	0.84561086
76	0x3f2cccfd	0.6750029
77	0x3f52fbf1	0.8241568
78	0x3f2b243d	0.6685217
79	0x3f206cb4	0.6266587
80	0x3f7a6be4	0.9782088
81	0x3f62e111	0.88624674
82	0x3f9fb89b	1.2478212
83	0x3fa62b86	1.2982032
84	0x3f3adbd4	0.7299168
85	0x3f6dad9e	0.92843044
86	0x3f318b07	0.69352764
87	0x3f43d2db	0.76493615
88	0x3ef27d25	0.47361103
89	0x3f39fcd0	0.72651386
90	0x3ede2acb	0.43392023
91	0x3f367ed6	0.71287286
92	0x3f8594e1	1.0436059
93	0x3f73afcb	0.95190114
94	0x3f9998c9	1.1999751
95	0x3f8e8b7f	1.1136321
96	0x3f6cc5ac	0.92489123
97	0x3f36041c	0.7110002
98	0x3f28f7b1	0.6600295
99	0x3f44a7ec	0.7681873
100	0x3f418181	0.7558823
101	0x3f6235f6	0.8836359
102	0x3f14d841	0.5814248
103	0x3f56b3cb	0.8386809
104	0x3f8b68ea	1.0891392
105	0x3f3eae06	0.7448429
106	0x3f62a2b1	0.885295
107	0x3f92b0fd	1.1460263
108	0x3f420c59	0.7580009
109	0x3f608bb5	0.87713176
110	0x3f8a339a	1.0796998
111	0x3f52fa7f	0.82413477
112	0x3f7841ef	0.96975607
113	0x3f3319ee	0.6996144
114	0x3f48ab39	0.78386265
115	0x3f5d73e2	0.8650495
116	0x3f49e3e0	0.78863335
117	0x3f684258	0.9072623
118	0x3f2b5eec	0.66941714
119	0x3f78d650	0.97202015
120	0x3f68eff5	0.90991145
121	0x3f2f47ad	0.68468744
122	0x3f97f5b5	1.1871859
123	0x3f2a30a3	0.66480464
124	0x3f26bad5	0.65128833
125	0x3f881027	1.0629929
126	0x3f4382c4	0.7637141
127	0x3f7e5b37	0.9935793

bias f4 [128]
0	0x3eb61b7c	0.35567844
1	0x3e262b98	0.16227567
2	0x3cf09b0b	0.029370805
3	0x3fa804c4	1.3126454
4	0x3eb98293	0.36232433
5	0x3faafc90	1.3358326
6	0xbd23db44	-0.04000403
7	0x3ec0ac1e	0.37631315
8	0x3f97b86b	1.1853155
9	0x3fe05ba6	1.7527969
10	0x3ed10a09	0.4082797
11	0x3ef8251f	0.4846582
12	0x3f69c1ab	0.9131114
13	0x3eb9301b	0.36169514
14	0x3e016e08	0.1263963
15	0xbd6d39f8	-0.05791661
16	0x3f903a81	1.1267854
17	0x3fd31d8c	1.6493392
18	0x3f6e2056	0.9301809
19	0xbcc597bb	-0.024120202
20	0x3eeed8e7	0.46649858
21	0x3f1c6271	0.6108771
22	0x3e273ac4	0.16331011
23	0xbe7cd1fd	-0.24689479
24	0x3f4c7933	0.79872435
25	0x3fb8ac72	1.4427626
26	0x3e52f7d1	0.20602347
27	0x3daaa1fd	0.08331678
28	0x3f717a3e	0.9432715
29	0x3f07392c	0.5282161
30	0x3ce50bea	0.027959783
31	0xbc04a915	-0.008096953
32	0x3e272ae7	0.1632496
33	0xbd929999	-0.07158203
34	0x3e8492b0	0.25893164
35	0x3dc3ea90	0.095662236
36	0x3fa466a5	1.2843825
37	0x3f7ad527	0.97981495
38	0xbc58dc90	-0.01323618
39	0x3e7f3613	0.24922971
40	0x3f6b6b12	0.9196025
41	0xbbb82821	-0.005620018
42	0x3eeac2e0	0.45851803
43	0x3fc22338	1.5166998
44	0x3e51d8b5	0.20492823
45	0x3e1f1295	0.15534432
46	0x3efbf4d1	0.49210218
47	0x3defbd8a	0.117060736
48	0x3f5487de	0.83019817
49	0x3f2771a8	0.654078
50	0x3e2023d4	0.15638667
51	0x3e26d4b3	0.16292076
52	0x3eb26a3d	0.34846678
53	0x3f258f72	0.64672005
54	0x3f082452	0.5318042
55	0x3f781a0c	0.96914744
56	0xb9e15053	-0.0004297519
57	0xbcf53fd6	-0.029937666
58	0x3fd67828	1.6755419
59	0x3e91513b	0.28382286
60	0xbedb47b9	-0.42828158
61	0xbe1259ef	-0.1429212
62	0x3fbba021	1.4658242
63	0x3e4b0047	0.19824325
64	0x3f49e078	0.7885814
65	0x3fb5efe1	1.421383
66	0x3ec74f61	0.3892775
67	0x3f578258	0.84183264
68	0x3f217b93	0.63079184
69	0x3e220e7e	0.15825841
70	0x3fc6f01d	1.5542027
71	0xbcb4ea43	-0.022084361
72	0x3ee4fc6f	0.44723842
73	0x3e1343f4	0.14381391
74	0xbd16bff5	-0.03680416
75	0x3eca6ff4	0.39538538
76	0x3fca1fa4	1.5790906
77	0x3e85ac3d	0.2610797
78	0x3f8ff801	1.124756
79	0x3f592bb0	0.84832287
80	0xbc936869	-0.017994123
81	0xbddb4bc8	-0.107078135
82	0x3ee6dd69	0.45090798
83	0x3dc03295	0.09384648
84	0x3fdb6cfe	1.7142637
85	0x3f675b52	0.9037372
86	0x3f834601	1.0255738
87	0x3e93ab4a	0.2884162
88	0x3e8a0d0f	0.26963088
89	0x3f6feea8	0.93723536
90	0x3f52eba7	0.82390827
91	0xbdd6ac80	-0.104821205
92	0x3f80a81d	1.0051304
93	0xbda77f8d	-0.08178625
94	0x3f0cb52e	0.5496396
95	0x3eec6386	0.4616968
96	0x3ee1a878	0.44073844
97	0x3f3b5c6d	0.73187906
98	0x3fae287f	1.3606108
99	0x3fa07d68	1.2538271
100	0x3e57f8cb	0.21091
101	0x3d7a8a55	0.06116708
102	0x3f309d11	0.68989664
103	0x3e23c4e1	0.15993072
104	0xbd4116b1	-0.04714078
105	0x3e32fb36	0.17478642
106	0x3f3835fa	0.7195736
107	0x3d2f1735	0.04274674
108	0x3f9060aa	1.12795
109	0xbe2d8e81	-0.16948892
110	0x3f192208	0.5981755
111	0x3e90adc7	0.28257582
112	0x3eb8242d	0.359651
113	0x3ec06cec	0.375831
114	0x3f48ac28	0.7838769
115	0x3f2b43a2	0.66900074
116	0x3e628d97	0.22124325
117	0x3f0db5cd	0.5535553
118	0x3f0bf439	0.5466953
119	0x3e9b30b3	0.30310592
120	0x3eaf105e	0.34192175
121	0xbe5cc67c	-0.21560091
122	0x3ed4fc45	0.41598716
123	0x3e666873	0.22500782
124	0x3f9aa0dd	1.2080342
125	0x3ef59349	0.47963932
126	0x400afb08	2.1715717
127	0x3e037687	0.12838183

running_mean f4 [128]
0	0x405b77ed	3.4291947
1	0x3fb68758	1.4260054
2	0xbe1e8189	-0.15479101
3	0x407d83d7	3.9611719
4	0x3fd9b1a1	1.7007333
5	0x40015436	2.0207648
6	0x3f8a2a05	1.0794073
7	0x4038377b	2.8783863
8	0x3fb5ad75	1.419356
9	0x3fb6f260	1.4292717
10	0x3d1da97a	0.038491704
11	0x3ffb744e	1.9644868
12	0x4029261e	2.6429515
13	0x40736483	3.8030097
14	0xbf04ad99	-0.5182739
15	0x3f2103ec	0.6289661
16	0x3fd5bc76	1.6698139
17	0x3ffddd7f	1.983322
18	0x3fde0817	1.7346219
19	0xbf84ce45	-1.0375448
20	0x4062df47	3.5448778
21	0x4049bb87	3.1520708
22	0xbfae6a58	-1.3626204
23	0x3e9e4640	0.30912971
24	0x4021952c	2.5247297
25	0xbfa6085f	-1.2971305
26	0x3f822095	1.0166193
27	0x3fd3b539	1.653968
28	0x3fb4ceeb	1.4125646
29	0x3fcf0452	1.6173193
30	0x4056a663	3.3539054
31	0xbfa1f206	-1.2651985
32	0x3f8b608c	1.0888839
33	0xc019c969	-2.402918
34	0x40817926	4.0460386
35	0x405f4800	3.4887695
36	0x3f4dffa2	0.8046819
37	0xbfa387d3	-1.2775825
38	0x3fbeeb10	1.4915485
39	0x40993dce	4.7887945
40	0x3fdcb78c	1.7243514
41	0x3f4e73a5	0.8064521
42	0x409bc3c6	4.867648
43	0xbe1949cf	-0.14969562
44	0x3f5c34d8	0.86018133
45	0x407c0846	3.938005
46	0x404ae40f	3.1701696
47	0x3fb0d127	1.3813828
48	0x3fbb9c2a	1.4657032
49	0x3f8fc590	1.1232166
50	0x401e0fd0	2.469715
51	0x3f648286	0.8926166
52	0x4087b591	4.240914
53	0x3e801e8d	0.25023308
54	0x3f191a15	0.59805423
55	0xc07656b9	-3.8490431
56	0x3ed2667e	0.4109382
57	0xbfdb7036	-1.7143619
58	0x3fc78202	1.558655
59	0x40110ae5	2.26629
60	0x4065a21b	3.5880191
61	0xbe7b63fc	-0.2454986
62	0xbf1e615d	-0.61867315
63	0x3fc9cd4a	1.5765774
64	0x3f888ae0	1.0667381
65	0x3f925372	1.1431715
66	0x40272bc5	2.6120465
67	0x4006fafd	2.109069
68	0x4026f740	2.608841
69	0xbf386661	-0.7203122
70	0x3ffef77f	1.991928
71	0x3f1a9932	0.6039001
72	0x4040e2b4	3.0138369
73	0xbe414f5e	-0.18877932
74	0x3dd60bae	0.104514465
75	0x3ffb7912	1.9646323
76	0x3f1be7ac	0.6090038
77	0x406fe00c	3.7480497
78	0x4047c5a8	3.121439
79	0x3f7ab00c	0.97924876
80	0xc0179355	-2.3683674
81	0xbfe58451	-1.7931005
82	0x407279fc	3.7886953
83	0x3f87e4a6	1.0616653
84	0x3ff0087a	1.8752587
85	0x3f3f8d1a	0.7482468
86	0xbf33bd2b	-0.7021052
87	0x40133a68	2.3004398
88	0x3f302344	0.6880381
89	0x407a338f	3.909397
90	0x3faf416e	1.3691843
91	0x40052503	2.080384
92	0x40799737	3.8998544
93	0xbf872c60	-1.0560417
94	0x40577e33	3.3670776
95	0x40263715	2.597112
96	0x3f40d6ed	0.7532795
97	0x3f9f8a97	1.2464169
98	0x3fc96a68	1.5735598
99	0x402aee59	2.6707976
100	0x409176af	4.5457377
101	0x401d7a47	2.4605882
102	0x401c95b1	2.4466364
103	0x3f40157d	0.7503279
104	0x3f9484eb	1.1603063
105	0x401bbeaa	2.4335122
106	0x3f8ae25b	1.0850328
107	0xbf0db69a	-0.5535675
108	0x3f7b3861	0.981329
109	0xbf993c0c	-1.197145
110	0x40a213b2	5.064904
111	0x403761d3	2.8653457
112	0x4009a005	2.1503918
113	0x3f7f6b51	0.99773127
114	0x405c149a	3.4387574
115	0x401cd3b4	2.4504213
116	0x40179eb3	2.3690612
117	0x40489942	3.134354
118	0x3ff6fb2d	1.9295403
119	0x407aae6a	3.9168954
120	0x3f76ba0a	0.96377623
121	0x3f055cc0	0.5209465
122	0x408625fb	4.1921363
123	0x3f2c9f3a	0.6743046
124	0x3f1ea27a	0.6196667
125	0x3f82b59f	1.0211676
126	0x4016c70b	2.3558986
127	0x3fa74e37	1.3070744

running_var f4 [128]
0	0x3fd26821	1.6438028
1	0x4009f0b2	2.1553159
2	0x3fc836de	1.5641744
3	0x3f4d927b	0.80301636
4	0x402d63d0	2.709217
5	0x3f95aa24	1.1692548
6	0x3fe0786a	1.7536747
7	0x40526f77	3.2880533
8	0x3f83279c	1.0246463
9	0x3fc726f3	1.5558761
10	0x404c915b	3.1963718
11	0x4050cfc2	3.2626805
12	0x3fe94d9a	1.8226807
13	0x406acaab	3.6686199
14	0x3f6aa1f1	0.9165335
15	0x3fe91b3c	1.8211436
16	0x3fad113e	1.3520887
17	0x3f4ed79b	0.8079774
18	0x3ffc6686	1.9718788
19	0x3f722951	0.94594294
20	0x404d20ce	3.2051272
21	0x3fe7cfce	1.8110292
22	0x400540e9	2.0820868
23	0x3fd91ca4	1.6961865
24	0x3fa7385f	1.3064078
25	0x3f23addf	0.6393718
26	0x3fd4feb5	1.664023
27	0x400036a5	2.0033352
28	0x3f8fe475	1.1241595
29	0x3fb33fa3	1.4003795
30	0x3fcf6b2c	1.6204581
31	0x403ad396	2.9191642
32	0x3f84bf87	1.037095
33	0x40514062	3.2695546
34	0x40558bd6	3.33666
35	0x3fb7293a	1.4309456
36	0x3faa81db	1.3320879
37	0x3fc422af	1.5323085
38	0x3f86f5bc	1.0543742
39	0x402afcf9	2.6716902
40	0x3f7823c3	0.9692957
41	0x400af607	2.1712663
42	0x407b6980	3.9283142
43	0x3fb72d59	1.4310714
44	0x3fa6527e	1.2993925
45	0x3ff85308	1.9400339
46	0x4011e41f	2.2795484
47	0x40311030	2.766613
48	0x3f8459f7	1.0339955
49	0x3fd5f734	1.6716065
50	0x3f6269d2	0.8844272
51	0x3fd1b0e9	1.6382114
52	0x3fbade00	1.4598999
53	0x3f49dd66	0.7885345
54	0x3feb262e	1.8371027
55	0x3f0ec2bb	0.55765885
56	0x3ff70841	1.9299394
57	0x3fe48d45	1.7855612
58	0x400fc848	2.2465992
59	0x3fb4cc87	1.4124917
60	0x3fcf1f05	1.6181341
61	0x3fe9978f	1.8249377
62	0x3f9c5896	1.2214534
63	0x40282523	2.6272666
64	0x3f6ccd54	0.92500806
65	0x3f9e333d	1.2359387
66	0x400f257c	2.2366629
67	0x3fc11302	1.5083926
68	0x3f8652b0	1.0493984
69	0x3ff26823	1.893803
70	0x3f879370	1.0591869
71	0x3f9369e9	1.1516696
72	0x404a9e9b	3.1659305
73	0x3f5d1a76	0.863685
74	0x3fee2929	1.8606311
75	0x40245875	2.567899
76	0x3f8dd260	1.1079826
77	0x40018d63	2.0242546
78	0x3fcabc91	1.5838796
79	0x3f9f2a07	1.2434701
80	0x4052e127	3.2949922
81	0x401d0180	2.4532166
82	0x404fc207	3.2462175
83	0x3ffa3c4b	1.954965
84	0x3fbc4c1f	1.471073
85	0x402309f9	2.5474837
86	0x3fe04af4	1.7522874
87	0x3fc742d0	1.5567265
88	0x3fb7f731	1.4372312
89	0x3ff24075	1.8925921
90	0x3f6e6812	0.9312755
91	0x3f92ac97	1.145892
92	0x404a801c	3.1640692
93	0x3f5a78a3	0.8534033
94	0x4010f9b4	2.2652407
95	0x40605505	3.5051892
96	0x3ffb6873	1.964125
97	0x3f9d1b44	1.2273946
98	0x3f934d37	1.1507939
99	0x3f9aa41c	1.2081332
100	0x3ff543c9	1.9161311
101	0x3fb0ecdc	1.3822284
102	0x3f653fc1	0.89550406
103	0x4006ee00	2.1082764
104	0x3f550c93	0.8322231
105	0x3f96cc5b	1.1781114
106	0x406a16db	3.657645
107	0x3fe209d5	1.765925
108	0x400aaa47	2.166643
109	0x40391d87	2.8924272
110	0x408aae2e	4.333762
111	0x400c3366	2.190637
112	0x3f977c65	1.1834837
113	0x4001ba60	2.0270004
114	0x401d6bc8	2.4597034
115	0x3fd81728	1.6882067
116	0x4039110d	2.8916657
117	0x3fbb44fc	1.4630427
118	0x3fa14d1d	1.2601658
119	0x400fdd67	2.2478883
120	0x3f58bea5	0.846659
121	0x3f6c263e	0.9224585
122	0x40306080	2.75589
123	0x3f93a659	1.153514
124	0x3f9030b7	1.1264867
125	0x4034c4af	2.8245046
126	0x3fa936be	1.3219831
127	0x3fbee19a	1.4912598

weight f4 [64, 128]
0	0xbde757c3	-0.11296036
1	0x3d9aa5af	0.07551133
2	0x3dc9639b	0.09833451
3	0x3e2d0272	0.16895464
4	0x3d22d22a	0.03975121
5	0xbdccaf64	-0.099943906
6	0xbf239277	-0.6389536
7	0xbdcbd2e3	-0.09952333
8	0xbe6a1ad9	-0.22861804
9	0xbec71df9	-0.38890055
10	0x3d15afa4	0.036544457
11	0xbd19a2a5	-0.037508626
12	0x391f5237	0.00015194049
13	0xbd38a9de	-0.045083873
14	0x3e9b9c93	0.30392894
15	0xbe3bd8d4	-0.18344432
16	0x3e24e5a8	0.16103232
17	0x3e97762b	0.29582343
18	0x3de7903a	0.11306806
19	0x3d4a0ebb	0.049330454
20	0xbe8153bd	-0.252592
21	0xbe292b43	-0.1652041
22	0xbdc029d7	-0.0938298
23	0xbd85a152	-0.0652491
24	0x3c0be65f	0.0085388115
25	0xbe8447c9	-0.25836018
26	0x3da7b47a	0.0818872
27	0x3ce89c61	0.02839488
28	0x3e635506	0.22200403
29	0xbd464c9a	-0.048412897
30	0x3e891eb5	0.2678124
31	0xbcbb0fb7	-0.022834642
32	0xbe15de83	-0.14635663
33	0x3df2d1f8	0.118564546
34	0xbdd3e9f9	-0.10347361
35	0xbe4d6e42	-0.20061591
36	0xbc1a214f	-0.009407355
37	0xbd7a468f	-0.061102446
38	0xbc351c52	-0.011054115
39	0xbd8e04fb	-0.06934544
40	0xbe3af436	-0.18257222
41	0xbddaa99a	-0.1067688
42	0xbe03b1bb	-0.12860768
43	0x3e714a7e	0.23563573
44	0xbeb0b167	-0.34510347
45	0x3d813fd2	0.06311001
46	0x3e6823a9	0.22669853
47	0xbe4a494a	-0.1975452
48	0x3d45e34a	0.048312463
49	0x3d25f760	0.04051912
50	0x3e3cf524	0.18452889
51	0xbc13afc1	-0.009014071
52	0xbde58b05	-0.112081565
53	0x3dd0a04d	0.10186825
54	0xbd8e1b82	-0.069388404
55	0xbe314df2	-0.1731489
56	0x3db94f5f	0.09048342
57	0x3dcb8eed	0.0993937
58	0x3dfea96d	0.12434659
59	0x3ec7cbc8	0.3902266
60	0xbdae8a00	-0.08522415
61	0xbe87dc76	-0.26535386
62	0xbe51d728	-0.20492232
63	0x3c24c3ab	0.0100564165
64	0x3dd51eb5	0.104062475
65	0xbe2df1d6	-0.16986784
66	0xbdc3c867	-0.09559708
67	0x3e0a0d6c	0.13481683
68	0x3d8c88b1	0.06862009
69	0x3e0fc9e2	0.14041856
70	0x3e6a5c1f	0.22886704
71	0x3b87ce40	0.00414446
72	0x3d10ffbe	0.035400145
73	0x3e748b46	0.23881254
74	0x3cd43bdb	0.025907448
75	0x3d9605ce	0.07325326
76	0xbe883beb	-0.26608214
77	0xbdb52fee	-0.088470325
78	0xbdd2f976	-0.10301487
79	0x3d5e4fd7	0.05427536
80	0x3d83a72c	0.0642837
81	0x3e4a5187	0.19757663
82	0xbd1b7551	-0.03795368
83	0x3db079a3	0.0861695
84	0x3e1fcfbf	0.15606593
85	0xbe818f3e	-0.25304598
86	0xbd971318	-0.07376689
87	0xbe3f18d9	-0.18661822
88	0xbdacb299	-0.08432502
89	0x3e299764	0.16561657
90	0xbd7b6edf	-0.06138503
91	0xbe355f71	-0.1771219
92	0x3e3722ec	0.17884415
93	0x3e6bc967	0.23026048
94	0x3d7bfcc9	0.06152037
95	0xbdb16665	-0.08662108
96	0x3ce2d771	0.027690621
97	0xbdba109c	-0.09085199
98	0xbe71e3d8	-0.23622072
99	0xbe14ef25	-0.14544351
100	0x3d984865	0.07435683
101	0xbd0cc586	-0.03436806
102	0x3e98aa65	0.298175
103	0x3dfe6730	0.12422025
104	0x3e218752	0.15774277
105	0xbd4852b5	-0.048907
106	0xbe8dda6e	-0.2770571
107	0x3f24b46d	0.6433781
108	0xbd9ed5dc	-0.07755634
109	0xbdb994b1	-0.09061564
110	0xbdaf1a37	-0.08549922
111	0xbe0f6fb7	-0.1400746
112	0x3ea34685	0.3188974
113	0x3e08cdaa	0.13359705
114	0x3d3fd580	0.04683447
115	0xbd8c4307	-0.06848722
116	0xbdad99e5	-0.08476619
117	0x3dac1452	0.08402313
118	0x3d592172	0.05301041
119	0x3e8bea8e	0.2732739
120	0x3e0abd6a	0.13548818
121	0xbdf885ec	-0.121349186
122	0xbcd6aab0	-0.026204437
123	0xbd1f09ca	-0.038827695
124	0xbd7177d5	-0.05895217
125	0x3d2c702e	0.04209917
126	0xbe8022f8	-0.2502668
127	0x3d1286c9	0.035773072
128	0xbd8eada6	-0.069667146
129	0xbdab1bd2	-0.08354916
130	0x3e90d1a7	0.28284952
131	0xbf0751c6	-0.5285915
132	0x3dccda12	0.10002531
133	0x3e11854a	0.14211002
134	0xbe0da28b	-0.13831536
135	0xbe047666	-0.1293579
136	0x3f0841e5	0.5322555
137	0xbe989046	-0.29797572
138	0xbd12fec2	-0.035887487
139	0xbe744853	-0.23855714
140	0xbe4976a0	-0.19674158
141	0xbe7d3870	-0.2472856
142	0x3da9fa7e	0.08299731
143	0xbe1bcdb5	-0.1521519
144	0x3e00e6f7	0.12588106
145	0xbebc91ad	-0.36829892
146	0xbdf056be	-0.11735295
147	0x3e797df4	0.24364454
148	0x3d66006a	0.05615274
149	0x3d4d0541	0.05005384
150	0x3dcb6eb4	0.09933224
151	0x3b76eb07	0.0037676708
152	0x3c8c3ef7	0.017119868
153	0x3ec03458	0.37539935
154	0x3dc53be2	0.09630562
155	0x3c38cf2d	0.011279863
156	0xbdc92093	-0.09820666
157	0xbc107c04	-0.00881863
158	0xbe1f3905	-0.15549095
159	0x3d981686	0.07426171
160	0xbd5bc3c5	-0.053653497
161	0xbe107b7b	-0.14109604
162	0xbe4adbbb	-0.19810383
163	0x3dbcda19	0.09221286
164	0x3d8d9072	0.069123164
165	0xbe7c85d6	-0.2466043
166	0xbdacd455	-0.084389366
167	0x3c9ec395	0.01938037
168	0x3d6cf3d5	0.057849724
169	0xbe0f0b11	-0.13969065
170	0xbe256414	-0.16151458
171	0x3e557c66	0.20848235
172	0x3e42f3c9	0.19038309
173	0x3e422f3b	0.1896333
174	0xbe428e59	-0.18999614
175	0x3d1380fd	0.036011685
176	0xbce47bb7	-0.027891023
177	0xbdc7f582	-0.09763624
178	0x3de33972	0.11094941
179	0xbd8d30e2	-0.06894089
180	0xbd9ce14d	-0.0766016
181	0x3ea53887	0.3226969
182	0x3a9c1572	0.0011908247
183	0x3e88412f	0.2661223
184	0x3d89d9e7	0.06731015
185	0xbe14cb4d	-0.14530678
186	0xbe24fc7e	-0.16111943
187	0x3dcd50d2	0.10025181
188	0x3e43dc50	0.19127011
189	0xbe0de766	-0.13857803
190	0x3dd17c49	0.10228784
191	0xbcae7755	-0.021297136
192	0x3e7f08c7	0.24905692
193	0x3da5e1f4	0.08099738
194	0xbd45fcf4	-0.048336938
195	0x3e5a34b9	0.21309175
196	0xbe367460	-0.17817831
197	0xbe89abbf	-0.26888844
198	0x3e7e099a	0.2480835
199	0x3e7780f0	0.2417028
200	0xbdcb772c	-0.099348396
201	0xbe17704c	-0.14788932
202	0xbead76ec	-0.33879793
203	0x3e1f4e11	0.15557124
204	0xbd63ceb6	-0.055617057
205	0x3e85b53b	0.2611483
206	0xbebb2899	-0.3655441
207	0x3e6ad29a	0.229319
208	0xbe948930	-0.29010916
209	0x3ce7db5c	0.02830284
210	0xbd79151d	-0.06081115
211	0x3e7b31d4	0.24530727
212	0x3ec29eb9	0.3801172
213	0xbea12c01	-0.31478885
214	0x3e2715f2	0.16316965
215	0x3ef7f7f7	0.4843137
216	0xbe118bde	-0.14213511
217	0xbd9120b0	-0.07086313
218	0x3d410923	0.047127854
219	0x3e07733a	0.13227549
220	0xbd9a03d6	-0.07520263
221	0xbdd548aa	-0.1041425
222	0xbc415b28	-0.0118015185
223	0x3e59c4a5	0.2126642
224	0x3eaa2ca5	0.33237186
225	0x3e24f385	0.1610852
226	0x3e4bf112	0.1991618
227	0x3e25d122	0.16193059
228	0x3e3180aa	0.17334238
229	0x3dbf2d69	0.09334833
230	0x3e053602	0.13008884
231	0xbd07c08e	-0.03314262
232	0xbde02350	-0.10944235
233	0xbc8556a9	-0.016276674
234	0x3e3a6ac8	0.18204796
235	0x3db5c310	0.08875096
236	0xbd172e44	-0.036909357
237	0xbdb7331e	-0.08945297
238	0xbdff421a	-0.1246378
239	0xbc64fbcc	-0.013976049
240	0x3d205521	0.039143685
241	0xbd2160d8	-0.039398998
242	0xbe82546e	-0.2545504
243	0x3d49ffa3	0.04931606
244	0x3e8cf347	0.27529356
245	0xbd0f1310	-0.03493029
246	0x3c6077a9	0.013700404
247	0x3e8f3630	0.2797103
248	0xbe753eb0	-0.23949695
249	0xbde98782	-0.11402799
250	0x3dfb20f9	0.122621484
251	0xbe314946	-0.17313108
252	0xbdd41f31	-0.10357512
253	0xbe1f0b10	-0.15531564
254	0xbdfe1e70	-0.12408149
255	0xbda4f73c	-0.08054969

bias f4 [64]
0	0xbd394a11	-0.04523665
1	0x3e0992c9	0.134349
2	0x3c48e7c6	0.01226229
3	0xbd660756	-0.05615934
4	0xbdd5aeb4	-0.104337126
5	0xbdc1b06d	-0.09457479
6	0x3d8d45d7	0.068980865
7	0x3d94212c	0.072328895
8	0xbd5079f2	-0.050897546
9	0xbd8f0c12	-0.06984724
10	0xbd25abeb	-0.040447157
11	0xbe4ebd45	-0.20189388
12	0x3e31a3ba	0.17347613
13	0xbc0209b8	-0.007936887
14	0xbd86521d	-0.065586306
15	0x3d0b3d7a	0.033994175
16	0x3dfd282b	0.12361177
17	0xbde43fa0	-0.11144948
18	0xbdeca663	-0.11555173
19	0xbd9733ae	-0.07382904
20	0xbe4e8929	-0.2016951
21	0xbd98b1f4	-0.07455817
22	0xbe764ad5	-0.24051984
23	0x3c94824f	0.018128542
24	0xbd92218b	-0.07135304
25	0x3e7723f4	0.24134809
26	0x3e0f259e	0.13979194
27	0x3dbbe2a7	0.0917409
28	0xbe6d6f08	-0.23186886
29	0xbdea44de	-0.114389166
30	0x3dc9baa6	0.098500535
31	0xbcf5bd61	-0.02999753
32	0xbe6764ed	-0.22597094
33	0xbbeac42d	-0.0071644993
34	0xbd3824da	-0.04495702
35	0x3e0ec0e5	0.13940771
36	0x3d8fa886	0.07014565
37	0x3e06da27	0.13169156
38	0x3c09c40b	0.008408557
39	0x3d890685	0.066906966
40	0x3e3f3199	0.18671264
41	0xbdb30d76	-0.08742802
42	0x3de9c9d7	0.11415451
43	0xbe715fa5	-0.23571642
44	0x3e247531	0.1606033
45	0xbdb48089	-0.08813579
46	0x3e043860	0.1291213
47	0xbd883d92	-0.066523686
48	0x3db30e1c	0.087429255
49	0xbd0df445	-0.03465678
50	0xbd42725c	-0.047472343
51	0x3d2be5ae	0.041967086
52	0xbc9a1d1a	-0.018812705
53	0x3ccd0349	0.02502598
54	0xbd7045cc	-0.058660313
55	0xbdcc57f1	-0.09977711
56	0x3e9343c5	0.28762642
57	0x3d7e1719	0.062033746
58	0xbbcb2926	-0.0061999736
59	0x3b0556e6	0.0020345985
60	0xbdd5d78e	-0.104415044
61	0x3e3902cf	0.18067478
62	0xbdbcc75c	-0.09217712
63	0xbc1cee06	-0.009578234

weight f4 [64]
0	0x3f26bb7c	0.6512983
1	0x3e92617d	0.28590003
2	0x3e8883a1	0.26662925
3	0x3f00d4a5	0.5032447
4	0x3f4fc933	0.8116638
5	0x3ed48293	0.4150587
6	0x3f0f96f4	0.5608971
7	0x3f59f2d2	0.8513614
8	0x3f8406c4	1.0314565
9	0x3f98ac62	1.1927607
10	0x3f892d08	1.0716867
11	0x3f528f72	0.8225013
12	0x3f90fdf4	1.13275
13	0x3f1fff40	0.62498856
14	0x3f71521c	0.94265914
15	0x3f401590	0.750329
16	0x3f882366	1.0635803
17	0x3f3996eb	0.7249591
18	0x3f6977f3	0.91198653
19	0x3f87b56f	1.0602244
20	0x3ed1998d	0.40937462
21	0x3f1a0fba	0.60180247
22	0x3f6f8d6f	0.93575186
23	0x3f703d96	0.9384397
24	0x3f296472	0.6616889
25	0x3eff6569	0.49882057
26	0x3e9af05a	0.302615
27	0x3f37245e	0.71539867
28	0x3f88842f	1.0665339
29	0x3f75907b	0.95923585
30	0x3f328430	0.6973295
31	0x3f0a8f10	0.54124546
32	0x3f629641	0.8851052
33	0x3f8263cd	1.0186707
34	0x3f54538f	0.8294
35	0x3eedebf5	0.46469083
36	0x3effa534	0.49930727
37	0x3f3a96bb	0.72886246
38	0x3f6a2810	0.9146738
39	0x3f74080e	0.9532479
40	0x3f4f5995	0.80996066
41	0x3f34361c	0.70395064
42	0x3f792fb6	0.97338426
43	0x3f731d1f	0.9496631
44	0x3f87ce6a	1.0609868
45	0x3f2f6678	0.6851573
46	0x3f3fa31c	0.7485826
47	0x3eba1240	0.3634205
48	0x3f5f6df9	0.8727718
49	0x3f8857b2	1.0651762
50	0x3f49c9a1	0.78823286
51	0x3f5dbf02	0.8661958
52	0x3f66775d	0.90025884
53	0x3f0c208c	0.5473716
54	0x3f161349	0.58623177
55	0x3f61688f	0.8805017
56	0x3f5b6d12	0.85713303
57	0x3f29bf00	0.6630707
58	0x3f263376	0.64922273
59	0x3f4aef83	0.79271716
60	0x3ef64c94	0.481053
61	0x3f486266	0.78275144
62	0x3f82f3be	1.0230634
63	0x3f5e86c7	0.86924404

bias f4 [64]
0	0x3e02169e	0.1270394
1	0x3f07eebe	0.53098667
2	0x3e0609a6	0.13089618
3	0x3d5fab5c	0.05460678
4	0x3ea9fdd0	0.33201456
5	0x3ed972c6	0.42470378
6	0x3f1aaa14	0.6041577
7	0x3dc44c9d	0.09584925
8	0x3e0f722a	0.14008394
9	0x3e8013d9	0.25015143
10	0x3ee9d67b	0.45671448
11	0x3f313071	0.6921454
12	0x3eb5cf35	0.3550965
13	0x3e1b1216	0.15143618
14	0x3e5383cd	0.20655747
15	0x3f27f4c8	0.6560788
16	0x3eb615d5	0.35563532
17	0x3ef0c573	0.47025642
18	0x3f06a7a5	0.52599555
19	0x3ede5c42	0.43429762
20	0x3f07a468	0.5298524
21	0x3ec2c5d6	0.38041562
22	0x3e13222c	0.14368504
23	0x3ecd329e	0.4007768
24	0x3e304b6c	0.17216271
25	0x3ef3d1ea	0.4762109
26	0x3ef3c9c9	0.47614887
27	0x3d2a8b62	0.041636832
28	0x3efa7dc0	0.48924065
29	0x3e9d6c72	0.307468
30	0x3f267311	0.6501933
31	0x3c15234e	0.009102656
32	0x3ee1d95f	0.44111153
33	0x3eb788ca	0.3584655
34	0x3ed71e34	0.4201523
35	0x3e94d612	0.29069573
36	0x3e9d2860	0.30694866
37	0x3d6641d3	0.05621512
38	0xbd8148b1	-0.06312693
39	0x3dabdcc1	0.08391715
40	0x3eb24926	0.34821433
41	0x3ea32f5a	0.31872064
42	0xbdaa8300	-0.083257675
43	0x3f00ac6d	0.502631
44	0x3dc95174	0.09829989
45	0x3f203c53	0.6259205
46	0x3ebada35	0.36494604
47	0x3e70f2cf	0.23530124
48	0x3ee7ae1d	0.45250025
49	0x3e8a5102	0.2701493
50	0x3e2c3579	0.16817273
51	0xbc9cbf63	-0.019134229
52	0x3e641549	0.22273745
53	0x3e67b33e	0.22626969
54	0x3e49928c	0.1968481
55	0x3e721694	0.23641425
56	0x3f1b2470	0.60602474
57	0x3eba0d55	0.36338297
58	0x3f17f1b3	0.5935318
59	0x3ec04115	0.37549654
60	0x3e3db723	0.18526892
61	0x3f18e627	0.59726185
62	0x3ec4ec9b	0.38461766
63	0xbda17b53	-0.0788485
